backend/python/models/asl_model_20250310_184213.pt (torch, 228230 bytes, 18 tensors)

0.weight f4 [128, 63]
0	0x3eae3f20	0.34032536
1	0xbe1df02a	-0.15423647
2	0x3ce342a8	0.027741745
3	0x3ed4fbaf	0.4159827
4	0x3c88bdc8	0.016692057
5	0xbefc9c51	-0.4933801
6	0x3f1c04ea	0.60945
7	0x3d261518	0.04054746
8	0xbf65738c	-0.89629436
9	0xbe132430	-0.14369273
10	0x3e85c4d3	0.26126727
11	0xbf94f78f	-1.1638049
12	0xbfab6666	-1.3390625
13	0x3ebce49a	0.3689316
14	0xbf8fdb04	-1.1238713
15	0x3ee0571d	0.43816462
16	0xbf210988	-0.6290517
17	0xbff4b113	-1.9116539
18	0xbee63f9e	-0.4497041
19	0xbe745a7d	-0.23862644
20	0xbeedd74f	-0.4645333
21	0xbf5e0fb2	-0.867427
22	0xbf190794	-0.5977719
23	0xbee3a141	-0.44458964
24	0xbfa4a122	-1.2861674
25	0xbf21c7dc	-0.63195586
26	0xbf6274ed	-0.88459665
27	0xbc2f26d8	-0.010690413
28	0xbf2b9255	-0.6702016
29	0xbe3d9229	-0.18512787
30	0x3e850455	0.25979868
31	0x3e88d834	0.2672745
32	0xbe9f3d93	-0.31101665
33	0x3e442e67	0.19158326
34	0x3e7f6337	0.24940191
35	0xbf16229d	-0.58646566
36	0x3f48b8d0	0.78407
37	0x3f3a57a1	0.7278996
38	0xbf86d177	-1.0532674
39	0xbecd1ddf	-0.40061852
40	0xbe6a095e	-0.22855136
41	0x3fe9c8f8	1.8264456
42	0xbf595b5e	-0.8490504
43	0x3f04b07e	0.51831806
44	0xbea54643	-0.32280168
45	0xbe8d8d24	-0.27646744
46	0x3f46e6b8	0.776958
47	0xbf47bbb3	-0.7802078
48	0x3edfbf88	0.43700814
49	0x3f66f38c	0.90215373
50	0xbf8e87ac	-1.1135154
51	0xbef49cb6	-0.4777581
52	0x3db0d39a	0.0863411
53	0x3f95a4bb	1.1690897
54	0xbf12037b	-0.5703656
55	0x3edea237	0.43483135
56	0xbe1d73aa	-0.15376154
57	0xbf05c227	-0.5224938
58	0x3f473a36	0.778232
59	0xbf2d7a27	-0.67764515
60	0xbe949899	-0.29022673
61	0x3fa088ae	1.2541711
62	0xbe31854d	-0.17336006
63	0x3dcb957f	0.099406235
64	0xbcb76154	-0.022385277
65	0xbdd13391	-0.10214914
66	0x3d91c28f	0.07117187
67	0x3cec6987	0.028858913
68	0x3d0e9ee1	0.034819487
69	0x3d749923	0.059716355
70	0xbd29f904	-0.041497245
71	0x3ddc6475	0.10761348
72	0x3d6b589b	0.057457548
73	0x3da4b5fe	0.08042525
74	0xbd821897	-0.063523464
75	0x3c87e7a1	0.016589941
76	0xbd9ff7ba	-0.07810922
77	0x3dd1ffc1	0.10253859
78	0x3de40dc3	0.11135437
79	0xbd2ac42c	-0.04169099
80	0x3cd86f53	0.026420271
81	0xbd734161	-0.059388522
82	0x3d0416ec	0.032248423
83	0xbca83270	-0.020531863
84	0xbdd6af25	-0.10482625
85	0x3d8d1e12	0.06890501
86	0xbc218e42	-0.009860577
87	0x3ce67553	0.028132116
88	0xbd365e5c	-0.04452358
89	0x3dc4eb13	0.09615149
90	0xbdaf6cd7	-0.085656814
91	0xbd9abb3e	-0.07555245
92	0x3da65060	0.08120799
93	0xbb93a4b3	-0.0045057177
94	0x3d69f28c	0.057116076
95	0xbd5c4834	-0.053779796
96	0x3d8e14ca	0.06937559
97	0xbdf6f69f	-0.12058758
98	0x3dd59608	0.10429007
99	0x3ca05668	0.019572452
100	0x3c8f4ebe	0.017493602
101	0x3da901b0	0.08252275
102	0xbcf38c84	-0.029730089
103	0xbdec7c9a	-0.11547203
104	0x3dda8b47	0.10671096
105	0xbde9ed86	-0.11422257
106	0x3d7ad568	0.061238676
107	0xbd954917	-0.072893314
108	0x3db61117	0.088899784
109	0x3da036df	0.07822966
110	0xbd3f4de5	-0.046705145
111	0x3dd11f18	0.10211009
112	0x3c5d4fbd	0.013507781
113	0xbca38d7c	-0.019964926
114	0x3de70bb5	0.1128153
115	0x3dcbbdd4	0.09948316
116	0xbd752e7f	-0.059858795
117	0xbde4bfe1	-0.111694105
118	0xbd387871	-0.045036737
119	0x3d62d7c9	0.05538157
120	0x3dac6405	0.08417515
121	0x3dc9c503	0.0985203
122	0x3d2be114	0.041962698
123	0x3df0d782	0.11759855
124	0xbd0d80b2	-0.03454656
125	0xbd9b8142	-0.07593013
126	0x3dedd48a	0.11612804
127	0x3bd82cad	0.0065971226
128	0x3d67acb8	0.0565612
129	0x3d889d9c	0.066706866
130	0x3dfc3ac8	0.12315899
131	0x3d6489dc	0.055795535
132	0xbcd9667b	-0.026538124
133	0xbdae31e7	-0.08505612
134	0xbc60cf23	-0.01372126
135	0xbd6a8aca	-0.057261266
136	0xbd1738f3	-0.036919545
137	0xbcb17cbf	-0.021665929
138	0xbcb2debe	-0.021834727
139	0x3d24a166	0.040192984
140	0x3d808d2b	0.06276926
141	0xbc3e779f	-0.0116252
142	0xbddd1336	-0.1079468
143	0x3de1ba78	0.11021894
144	0xbc9ed038	-0.019386396
145	0xbbe5b5ba	-0.007010189
146	0xbc94aa58	-0.018147632
147	0x3cc3e535	0.023913005
148	0xbd92c830	-0.07167089
149	0xbd7278ea	-0.059197344
150	0x3ddf35f6	0.10898964
151	0xbd31b391	-0.04338414
152	0xbddd2293	-0.1079761
153	0x3ded5310	0.115881085
154	0xbcbb83f2	-0.022890065
155	0xbd89306b	-0.06698688
156	0x3cf616de	0.0300402
157	0xbd840712	-0.06446661
158	0x3d1d9744	0.038474336
159	0x3c91e29b	0.01780825
160	0x3dcc0240	0.09961367
161	0xbd13f457	-0.036121693
162	0xbdb99e08	-0.09063345
163	0xbd815196	-0.063143894
164	0xbd7b6c2f	-0.06138247
165	0x3c93f789	0.01806237
166	0xbc8ddacb	-0.017316243
167	0x3d6fb98e	0.058526568
168	0xbd8ca609	-0.06867606
169	0x3d160493	0.036625456
170	0xbd7d9d56	-0.061917625
171	0x3d1ddce4	0.038540736
172	0x3dd960bb	0.10614153
173	0x3dd39e15	0.10332886
174	0xbc738f59	-0.01486572
175	0x3c66c4db	0.01408502
176	0x3ce0234a	0.027360577
177	0x3d0568d2	0.032570668
178	0x3d7695d4	0.06020148
179	0x3c9c9034	0.01911173
180	0x3db440e3	0.08801439
181	0x3ddca984	0.1077452
182	0xbd8b564f	-0.068035714
183	0x3dc0049a	0.09375878
184	0xbd6cd68e	-0.057821803
185	0xbd2871c3	-0.041124117
186	0x3cc0976b	0.023509702
187	0xbd17a636	-0.037023745
188	0x3dbda216	0.09259431
189	0x3d1a90f1	0.037735883
190	0xbdcd25a1	-0.10016943
191	0x3d1fad71	0.038983766
192	0x3d5ce4f3	0.05392928
193	0xbdad93fe	-0.08475493
194	0xbd31a5a9	-0.043370876
195	0x3d946be7	0.07247143
196	0x3ddc8e81	0.10769368
197	0x3dd16818	0.102249324
198	0x3d873513	0.0660192
199	0x3d53ad25	0.051678795
200	0x3d93a4bb	0.07209154
201	0xbcf1e522	-0.029528204
202	0xbdb0daa6	-0.08635454
203	0xbdd6bb6f	-0.10484969
204	0xbd51a26b	-0.051180284
205	0xbbac1dd6	-0.00525258
206	0x3dacfbda	0.084464744
207	0xbc656528	-0.014001168
208	0xbdc302ff	-0.09522056
209	0x3d881ae8	0.06645757
210	0x3d9db589	0.07700641
211	0x3deab103	0.114595436
212	0x3d31531b	0.043292146
213	0x3cf42ea9	0.029807406
214	0xbb2b4eb7	-0.0026139447
215	0x3df9405f	0.12170481
216	0x3da996cb	0.082807146
217	0x3dd0e662	0.10200192
218	0x3b7341ad	0.0037118003
219	0x3c9a6ce9	0.01885076
220	0xbc8a9a74	-0.016919352
221	0x3df7c3d9	0.12097902
222	0x3d4d7981	0.050164703
223	0x3d0ea868	0.034828573
224	0xbdbeffbc	-0.09326121
225	0x3dd63a2c	0.10460314
226	0x3b800063	0.003906296
227	0xbd83d9cd	-0.064380266
228	0x3d840304	0.06445888
229	0xbd125658	-0.035726875
230	0xbd4fa2f0	-0.0506925
231	0x3df6fe6c	0.12060246
232	0xbded0d75	-0.11574832
233	0x3d7f9af5	0.062403638
234	0x3df0939e	0.11746906
235	0x3da1ebb8	0.07906288
236	0xbdf40a99	-0.11916084
237	0xbdcc9693	-0.09989657
238	0xbd1831f3	-0.03715701
239	0x3ddb407d	0.107056595
240	0x3d7fae27	0.062421944
241	0x3dc91834	0.098190695
242	0xbda6a5ab	-0.081370674
243	0xbd4f6f3c	-0.05064319
244	0xbdfad36c	-0.12247357
245	0xbdbb9771	-0.091597445
246	0x3d77d136	0.060502253
247	0xbda6e16b	-0.08148464
248	0x3c5d4334	0.013504792
249	0x3d8dbd6e	0.069208965
250	0xbdb4d977	-0.088305406
251	0x3dbe9f1a	0.0930769
252	0xbf0f45e9	-0.5596605
253	0x3f83bee5	1.0292631
254	0xbde176fb	-0.11009022
255	0xbec13c40	-0.3774128

0.bias f4 [128]
0	0xbcd5059c	-0.026003651
1	0xbdceff6c	-0.101073116
2	0xbdab36eb	-0.08360084
3	0xbd3872b5	-0.04503127
4	0x3e1bb0dd	0.15204187
5	0x3debc71b	0.11512586
6	0x3ea705fd	0.32621756
7	0xbd99f0e2	-0.07516648
8	0x3e64d843	0.22348122
9	0x3e70f3e3	0.23530535
10	0xbc30ed67	-0.010798789
11	0xbd27df04	-0.04098417
12	0x3da2b2dd	0.07944272
13	0xbd6ee3de	-0.05832278
14	0xbd8f660b	-0.07001885
15	0xbdbde129	-0.092714615
16	0xbc3b4fea	-0.011432627
17	0x3ea46e3b	0.3211535
18	0x3eb20785	0.34771362
19	0xbd6dfa4c	-0.05810003
20	0x3e7e6955	0.24844868
21	0x3e5288f1	0.20560052
22	0x3e876c6a	0.264499
23	0xbcea9f2f	-0.028640358
24	0x3e087e01	0.13329317
25	0x3e993a34	0.29927218
26	0xbdc5082f	-0.096207015
27	0xbd463511	-0.04839045
28	0xbd8c4578	-0.068491876
29	0xbd6d028b	-0.057863753
30	0xbdab8ffa	-0.08377071
31	0xbcd87eec	-0.026427709
32	0x3df3d049	0.119049616
33	0x3e663c2a	0.22483888
34	0xbdcaee21	-0.09908701
35	0xbd91ade1	-0.07113243
36	0x3e5b71d3	0.21430139
37	0x3e8a21fb	0.2697905
38	0xbdcf1add	-0.10112546
39	0x3d9a3bb8	0.07530922
40	0xbd222a0b	-0.039590877
41	0xbcd36460	-0.025804698
42	0x3e9af854	0.30267584
43	0xbde57ba0	-0.1120522
44	0x3ed972de	0.4247045
45	0xbd8f5f35	-0.07000581
46	0x3c661a75	0.014044394
47	0xbd9dbfb7	-0.07702582
48	0x3eb3e1e4	0.35133278
49	0x3df323f3	0.11872091
50	0xbd9e2dfd	-0.07723615
51	0x3de9e9fd	0.11421583
52	0x3e5f60ed	0.21814318
53	0x3e86b80f	0.263123
54	0xbdf8ef1a	-0.1215498
55	0xbd406079	-0.046967003
56	0x3e43c6ae	0.19118759
57	0x3d948db5	0.07253591
58	0xbd762918	-0.060097784
59	0x3dd21aa0	0.102589846
60	0x3e508131	0.20361783
61	0xbde0042a	-0.10938294
62	0xbd15f9fe	-0.036615364
63	0x3dc00ee9	0.09377844
64	0xbdca2e0b	-0.09872063
65	0x3e0f6317	0.14002644
66	0x3c133037	0.008983663
67	0x3e11e5ba	0.1424779
68	0x3de78068	0.113037884
69	0xbe00f78e	-0.12594435
70	0x3e0e8558	0.13918054
71	0xbd6a2b1a	-0.05717001
72	0x3ed4c0c8	0.4155333
73	0x3d7e7d4b	0.062131207
74	0xbd18fc49	-0.037349973
75	0xbdee89ac	-0.116473526
76	0xbc838bca	-0.016057868
77	0xbdb2e2a2	-0.08734633
78	0x3bac9120	0.0052663237
79	0xbd5b26ab	-0.053503674
80	0xbdec6306	-0.11542325
81	0xbd0a85c0	-0.03381896
82	0xbdda4d9f	-0.10659336
83	0xbdd40f3a	-0.10354467
84	0xbcc8e05d	-0.024521047
85	0xbd5d5771	-0.05403847
86	0x3da494a4	0.080361634
87	0xbd13ca97	-0.036081877
88	0xbd8ea797	-0.06965559
89	0x3e483322	0.19550756
90	0x3e4eecc5	0.20207508
91	0x3e446625	0.1917959
92	0x3da9e5fc	0.08295819
93	0x3e348eaf	0.17632554
94	0x3e4a33b2	0.19746283
95	0x3e16184a	0.14657703
96	0x3e6de3ef	0.23231481
97	0x3e84889c	0.25885475
98	0x3e1809b6	0.14847454
99	0xbda29842	-0.07939197
100	0x3e76d073	0.24102955
101	0xbd87574b	-0.06608447
102	0x3e575157	0.21027122
103	0x3df48319	0.119390674
104	0xbcef82e0	-0.02923721
105	0xbd9d1d7c	-0.07671639
106	0x3e19fb45	0.15037258
107	0x3d58efa6	0.05296292
108	0xbd79d192	-0.060990877
109	0x3e514486	0.20436296
110	0xbd56ed70	-0.05247253
111	0x3df55b64	0.11980322
112	0x3ea7c73c	0.3276919
113	0x3e867490	0.26260805
114	0x3e046b03	0.12931447
115	0x3e14f887	0.1454793
116	0xbdb0878f	-0.08619606
117	0xbda72e92	-0.081631795
118	0xbd0342a5	-0.03204598
119	0xbd56a302	-0.05240155
120	0x3d160750	0.036628067
121	0x3e402971	0.18765809
122	0xbd88f96d	-0.06688199
123	0x3e796e29	0.24358429
124	0x3e92fb4f	0.28707358
125	0xbd2d668f	-0.042334136
126	0x3df1396a	0.11778529
127	0xbdb5dea2	-0.088803545

2.weight f4 [64, 128]
0	0x3eebfaa2	0.46089655
1	0xbd39ad9b	-0.04533158
2	0x3d8cfd78	0.06884283
3	0xbc96cbf7	-0.018407805
4	0xbe3d67d4	-0.18496639
5	0xbc20c35b	-0.009812201
6	0x3c8ffe8d	0.017577434
7	0xbd80ad63	-0.06283071
8	0xbcf9c010	-0.03048709
9	0xbf801d49	-1.0008937
10	0xbe963caf	-0.29343173
11	0xbd2b1703	-0.041769993
12	0x3f1307b2	0.5743362
13	0xbc9b7033	-0.0189744
14	0x3d814840	0.06312609
15	0xbd79dc6d	-0.06100123
16	0x3f1dc236	0.6162447
17	0xbf5da893	-0.8658535
18	0x3d19df14	0.03756626
19	0xbd1ad356	-0.037799202
20	0x3e609ca9	0.21934761
21	0x3f00de93	0.5033962
22	0xbe9c1e33	-0.3049179
23	0xbd10b43c	-0.035328135
24	0xbeb8421e	-0.35987943
25	0xbf162d09	-0.5866247
26	0x3cdbe9e5	0.026844928
27	0xbc2ee13a	-0.010673815
28	0x3c009849	0.007848808
29	0xbc9dde6c	-0.019271098
30	0x3d653bcf	0.05596524
31	0x3d06d155	0.03291448
32	0xbf405e97	-0.7514433
33	0x3f1f1702	0.6214448
34	0x3f283d24	0.65718293
35	0xbd990a62	-0.074726835
36	0x3ea593d4	0.32339346
37	0x3e4edf75	0.2020243
38	0x3d672180	0.056428432
39	0xbe4a1b87	-0.19737063
40	0x3e18b287	0.14911853
41	0x3ed71c9c	0.42014015
42	0xbec82213	-0.39088497
43	0xbceba774	-0.028766371
44	0x3ee1ebd2	0.4412523
45	0xbda1e120	-0.07904267
46	0x3ec1091e	0.37702268
47	0xbcc136b1	-0.02358565
48	0x3e70137c	0.23444933
49	0x3f35e98c	0.7105949
50	0xb9b5065d	-0.0003452775
51	0xbd96155a	-0.07328291
52	0xbf140f74	-0.5783608
53	0xbcc9aa14	-0.024617232
54	0xbda90914	-0.08253685
55	0x3d395ef6	0.045256577
56	0x3ee4a561	0.44657424
57	0xbf07aa8d	-0.52994615
58	0x3f2d02ce	0.67582405
59	0xbeaa5b7a	-0.33272916
60	0x3f282ff1	0.6569815
61	0xbd5e6182	-0.05429221
62	0xbd41cddc	-0.047315463
63	0x3ee5bd7a	0.44871122
64	0x3d983a5c	0.07433006
65	0xbdeeee71	-0.11666573
66	0x3e3d60ef	0.18494008
67	0xbf4094ff	-0.7522735
68	0x3f402811	0.75061136
69	0xbbc22974	-0.0059253518
70	0xbdb0dabb	-0.086354695
71	0xbcd6ed2c	-0.02623614
72	0xbf0befe9	-0.5466295
73	0xbf1c13bf	-0.6096763
74	0xbce8fa0c	-0.028439544
75	0x3da4b487	0.08042245
76	0x3f23fdb4	0.64058995
77	0x3c812aec	0.015767537
78	0x3f267d90	0.65035343
79	0x3caa97e3	0.020824378
80	0xbcdc30b8	-0.0268787
81	0xbce4b406	-0.027917873
82	0xbcafa677	-0.021441681
83	0xbda1fca8	-0.079095185
84	0x3d836d14	0.064172894
85	0xbd38ac30	-0.045086086
86	0xbddd88d3	-0.10817113
87	0x3dacb42d	0.08432803
88	0x3d6a7d5d	0.057248462
89	0xbd4e02c0	-0.05029559
90	0x3ecd932b	0.40151343
91	0xbf18399d	-0.5946291
92	0xbec78978	-0.38972068
93	0x3f1b8a17	0.60757583
94	0x3f06b594	0.52620816
95	0xbec45975	-0.383495
96	0x3e75cf37	0.24004827
97	0x3e8674b9	0.26260927
98	0xbecd9ec8	-0.40160203
99	0x3e8c7a8f	0.27437255
100	0xbf07b7b9	-0.53014714
101	0xbd7ebfac	-0.06219451
102	0x3f156f21	0.58372694
103	0x3f1c299b	0.61000985
104	0xbd2e35a8	-0.04253164
105	0xbd22bd4b	-0.039731305
106	0x3f22231a	0.6333481
107	0x3f0ede21	0.5580769
108	0xbd64f6f7	-0.055899587
109	0x3cfa4032	0.030548189
110	0x3c06f7cd	0.008237791
111	0x3f2ce7d1	0.67541224
112	0x3d5fe734	0.05466385
113	0xbec42745	-0.3831121
114	0x3e699ea1	0.22814418
115	0xbd80a6e5	-0.062818326
116	0x3a8b69cd	0.001063639
117	0xbd7dbb5c	-0.061946258
118	0xbd6a354b	-0.05717973
119	0x3d345ed8	0.044035763
120	0xbe61a12d	-0.2203414
121	0x3f1f6817	0.62268203
122	0x3d674cf2	0.056469865
123	0xbd79bb82	-0.060969837
124	0xbf2fdef1	-0.68699557
125	0xbda24bbd	-0.07924602
126	0x3e00bff9	0.12573232
127	0x3d9f1f5f	0.077696554
128	0x3e86c8e1	0.26325133
129	0x3d818c86	0.06325631
130	0x3d2d1739	0.042258475
131	0xbd3e3795	-0.046439726
132	0xbe2f2817	-0.17105137
133	0x3f05b40e	0.52227867
134	0xbdbd0b1d	-0.09230635
135	0xbd98d973	-0.0746335
136	0x3d463417	0.04838952
137	0xbe3477ad	-0.17623778
138	0xbbc64640	-0.006050855
139	0x3cb4b2d0	0.02205792
140	0xbda363fc	-0.07978055
141	0xbd0d3ec7	-0.034483697
142	0x3d35709b	0.044296842
143	0x3d1c942c	0.038227245
144	0xbe67ffa3	-0.22656111
145	0xbe2b5c7e	-0.16734502
146	0x3f70c8c5	0.9405635
147	0x3c3a206f	0.011360272
148	0xbeafb33f	-0.3431644
149	0x3c9f1a53	0.019421732
150	0x3d99e962	0.07515217
151	0xbda5ab29	-0.08089287
152	0x3ef8e327	0.48610803
153	0xbea7c230	-0.3276534
154	0x3ce4847d	0.027895207
155	0x3d12721e	0.035753362
156	0x3d92a5fa	0.07160564
157	0xbda5b4b6	-0.080911085
158	0x3d8e66ad	0.069531776
159	0xbdb2748e	-0.08713637
160	0x3dea5346	0.114416644
161	0x3dcd8411	0.10034955
162	0xbea5d694	-0.32390273
163	0x3d8da589	0.06916339
164	0x3e4bbc3d	0.19896026
165	0xbd020bbe	-0.03174948
166	0x3d4880e4	0.048951045
167	0xbc5414d0	-0.012944415
168	0x3e3c05ea	0.18361631
169	0x3e3e786c	0.18600625
170	0x3e89fd9a	0.26951295
171	0x3d9021e4	0.07037714
172	0x3c6e4e99	0.014545106
173	0xbd3d1aa7	-0.046167996
174	0x3e175d79	0.1478175
175	0x3d69586a	0.056969084
176	0x3eef4956	0.46735638
177	0xbe2cd4a0	-0.16877985
178	0xbd6d4495	-0.057926733
179	0x3decb867	0.115586095
180	0xbf23cef0	-0.63987637
181	0xbdbbd495	-0.09171406
182	0xbd896b7c	-0.06709954
183	0xbd73f4be	-0.059559576
184	0x3c0aba09	0.008467206
185	0x3d8d848b	0.06910046
186	0xbf069c47	-0.5258221
187	0x3e0cfb65	0.13767774
188	0xbe2c86cc	-0.16848296
189	0x39fd94a5	0.0004836667
190	0xbd2f78fe	-0.042839997
191	0x3e2873d3	0.16450433
192	0xbd05397e	-0.032525532
193	0x3e9763b9	0.2956827
194	0x3c494a7b	0.012285824
195	0x3ec601ca	0.3867324
196	0x3f08b6ad	0.5340374
197	0x3ce38d34	0.027777292
198	0xbf05881b	-0.52160805
199	0x3c4915d1	0.012273268
200	0xbe037f28	-0.12841475
201	0x3f0a729f	0.5408115
202	0xbc76f2cb	-0.015072535
203	0x3c5f9659	0.0136466855
204	0x3e9eef06	0.31041735
205	0xbdb4188b	-0.08793744
206	0xbe88e796	-0.26739186
207	0xbd326b57	-0.0435594
208	0x3d811da2	0.0630448
209	0xbc094d9d	-0.008380321
210	0xbd7f7a0d	-0.062372256
211	0xbd3ed626	-0.046590947
212	0x3f66a5df	0.9009685
213	0x3d919a3c	0.07109496
214	0xbf40e071	-0.7534247
215	0xbceb75c8	-0.028742686
216	0xbbfa51fe	-0.0076391688
217	0x3e03f0a3	0.12884764
218	0xbf0589fb	-0.52163666
219	0x3f08cc55	0.53436786
220	0x3e8b1c3e	0.27169985
221	0xbdb5b5e5	-0.08872584
222	0x3eb85370	0.36001158
223	0xbf3bb824	-0.7332785
224	0x3f028221	0.5097981
225	0xbe17afe7	-0.14813195
226	0x3ef2f729	0.47454193
227	0x3ea4145d	0.32046786
228	0x3f247eda	0.6425606
229	0x3db08858	0.086197555
230	0xbd149799	-0.036277387
231	0xbeb5edc3	-0.3553296
232	0xbcf7df4c	-0.030257843
233	0x3d356a1c	0.044290647
234	0xbdf5712f	-0.11984479
235	0xbe1e0116	-0.15430102
236	0xbd71cf99	-0.05903587
237	0x3d80f169	0.06296045
238	0x3d6d72d5	0.05797084
239	0x3de7fb1b	0.113271914
240	0x3e575c77	0.21031366
241	0xbe86a978	-0.2630117
242	0x3c93ff27	0.018066002
243	0x3f38cd8a	0.7218863
244	0xbba012c8	-0.0048850514
245	0x3ca203b3	0.019777155
246	0x3cc2e010	0.023788482
247	0xbdb1a6ed	-0.08674417
248	0xbcdb6d7c	-0.026785605
249	0xbe1ae93c	-0.15128034
250	0xbcdb28ca	-0.026752848
251	0x3ebce0d1	0.3689027
252	0xbefbf76b	-0.49212202
253	0xbd4e95d2	-0.05043585
254	0xbdb300e6	-0.08740406
255	0xbd35da90	-0.04439789

2.bias f4 [64]
0	0xbdc9ed2a	-0.098596886
1	0x3e053513	0.13008527
2	0x3e97081d	0.29498377
3	0xbe907260	-0.2821226
4	0x3d240b43	0.040049803
5	0xbc07f497	-0.008298061
6	0xbd8b4f8c	-0.06802282
7	0xbd00436e	-0.031314306
8	0x3e9ba74a	0.3040107
9	0xbeaeff1f	-0.34179017
10	0xbd46b554	-0.04851277
11	0xbd826e05	-0.06368641
12	0x3d66835b	0.056277614
13	0xbe32c4ce	-0.17457888
14	0xbcaa7357	-0.020806951
15	0x3e0fb079	0.14032163
16	0x3de1629c	0.11005136
17	0x3c95c020	0.018280089
18	0xbd47b9c8	-0.04876116
19	0x3d2aa42f	0.041660484
20	0x3ecea4c6	0.40360087
21	0xbdb53f6b	-0.08849987
22	0xbdc666e2	-0.09687592
23	0x3d78eab9	0.060770724
24	0xbdc03f16	-0.09387033
25	0xbe2d5fb5	-0.1693104
26	0xbcd71054	-0.026252903
27	0xbbe8d767	-0.007105756
28	0x3d583b38	0.05279085
29	0x3e12fc9c	0.14354175
30	0xbd770429	-0.0603067
31	0x3d95d22e	0.07315479
32	0x3dd287c2	0.102798
33	0x3e2a9f5b	0.16662352
34	0xbd92f47d	-0.07175539
35	0x3d8f1595	0.06986538
36	0x3e13cf19	0.1443447
37	0x3ddffae9	0.10936529
38	0xbd3bacd2	-0.04581911
39	0x3d03ed5a	0.032208778
40	0xbcc93e36	-0.024565797
41	0xbb6012fe	-0.0034191008
42	0xbd7de026	-0.061981343
43	0x3e7098d5	0.23495801
44	0xbdebb01c	-0.115081996
45	0x3de983c4	0.114020854
46	0xbd65b0e1	-0.056076888
47	0xbd64f719	-0.055899713
48	0xbe032b0e	-0.12809393
49	0xbcd30af7	-0.025762064
50	0xbd7c7e6e	-0.06164401
51	0xbd1702bf	-0.036867853
52	0x3c8d9c5c	0.017286472
53	0xbdc44d70	-0.095850825
54	0x3dff9f7c	0.12481591
55	0xbd9202e7	-0.0712946
56	0xbd462b02	-0.04838086
57	0x3def9786	0.11698823
58	0xbda86278	-0.082219064
59	0xbd9b0aa6	-0.075703904
60	0xbcf5694a	-0.029957432
61	0x3c76a677	0.015054337
62	0xbd7fdf94	-0.06246908
63	0xbd73dd18	-0.059537023

4.weight f4 [27, 64]
0	0xbdd675f0	-0.104717135
1	0xbe6fec0a	-0.23429886
2	0xbe009155	-0.1255544
3	0xbe490373	-0.19630222
4	0xbebc1953	-0.3673807
5	0xbd841f5a	-0.06451292
6	0x3ce571aa	0.0280083
7	0xbe336d5c	-0.17522186
8	0xbe937784	-0.2880212
9	0xbf3d110a	-0.73854125
10	0xbd2af83c	-0.04174064
11	0x3dfe3ef5	0.12414352
12	0x3d212d5c	0.0393499
13	0x3c515f1a	0.012779022
14	0xbda252ff	-0.079259865
15	0xbe6858eb	-0.2269017
16	0xbe1890e6	-0.14899024
17	0xbd94a7c3	-0.072585605
18	0xbcb7a599	-0.02241783
19	0xbe9659cd	-0.29365388
20	0xbe7a305d	-0.24432512
21	0x3d556c1f	0.052105065
22	0xbe811f80	-0.25219345
23	0xbe7e0893	-0.24807958
24	0xbe4bc761	-0.19900276
25	0xbe81d874	-0.25360453
26	0x3d2010ac	0.0390784
27	0xbe45c653	-0.19313936
28	0xbdb4f222	-0.08835246
29	0xbe8d26bc	-0.27568614
30	0x3dd5cc42	0.1043935
31	0xbedff41d	-0.4374093
32	0xbe18f871	-0.14938523
33	0xbfac12f8	-1.3443289
34	0x3d8abaf0	0.06773937
35	0xbe044ac0	-0.1291914
36	0xbd117342	-0.03551031
37	0xbe965fb9	-0.29369906
38	0x3d85d2b2	0.065343276
39	0xbe40baf3	-0.18821315
40	0xbdee2970	-0.11628997
41	0x3c212267	0.009834862
42	0x3cf5123b	0.02991592
43	0xbe44fa4f	-0.1923611
44	0xbdae6406	-0.08515172
45	0xbd52bae5	-0.051447768
46	0xbca4a830	-0.02009973
47	0xbe58b837	-0.21164022
48	0xbe8142b9	-0.25246218
49	0xbe8d8a1c	-0.27644432
50	0x3d688ed4	0.056776837
51	0xbb465404	-0.003026248
52	0xbe98d9d5	-0.29853693
53	0x3dcc6c17	0.09981554
54	0xbe827ef2	-0.25487477
55	0xbdd27f86	-0.102782294
56	0x3c1d5fff	0.009605407
57	0xbe7e809e	-0.24853751
58	0xbe6d0d6b	-0.2314965
59	0x3d31d949	0.04342011
60	0x3dc665ff	0.09687423
61	0xbfb72e04	-1.4310918
62	0x3d0c94a2	0.034321435
63	0xbe76b985	-0.24094208
64	0x3e1a60b9	0.1507596
65	0xbeb83bd7	-0.35983154
66	0x3d638ed7	0.055556145
67	0xbee9f8d4	-0.45697653
68	0x3d6644d2	0.056217976
69	0xbdb72baa	-0.08943875
70	0xbcfb0f5a	-0.030646969
71	0x3e80caed	0.2515482
72	0x3e0197f1	0.12655617
73	0xbd735382	-0.05940581
74	0x3d826b5a	0.06368132
75	0xbdbd63d7	-0.092475586
76	0xbdf03ee7	-0.11730748
77	0xbe8f3cf0	-0.2797618
78	0xbda4d623	-0.08048656
79	0xbe10e13f	-0.14148425
80	0x3e178b8e	0.1479933
81	0x3dc3e549	0.09565217
82	0x3c7f5dc2	0.015586318
83	0xbdfe9e60	-0.124325514
84	0x3be6ab3b	0.007039455
85	0xbdd6aa3b	-0.10481688
86	0xbe98d31b	-0.2984856
87	0x3c853636	0.016261201
88	0xbd513eaa	-0.05108515
89	0x3e885169	0.2662461
90	0xbdd2dc30	-0.10295904
91	0x3d89efda	0.06735201
92	0x3e28f942	0.16501334
93	0xbe7c5172	-0.24640444
94	0xbd818e18	-0.0632593
95	0xbc027d4b	-0.0079644425
96	0xbd46df39	-0.048552725
97	0x3e565f51	0.20934798
98	0x3cb0aa09	0.021565454
99	0xbe2fe1d7	-0.17175995
100	0x3e842040	0.25805855
101	0x3e0e0688	0.13869679
102	0x3dc1584e	0.09440671
103	0xbea0ac6c	-0.31381547
104	0x3dccb1c3	0.09994843
105	0xbb935bc3	-0.004497023
106	0x3cf649fd	0.030064577
107	0xbe080ced	-0.13286181
108	0x3b8b8a7f	0.0042584534
109	0xbed8126f	-0.42201564
110	0x3dc0efe1	0.09420753
111	0x3e4b0e45	0.19829662
112	0x3e00f200	0.12592316
113	0x3bfa0e4e	0.0076311
114	0x3d2e50a1	0.042557362
115	0x3de5f53b	0.112284146
116	0xbc4cd532	-0.012502002
117	0x3dcd8ec8	0.10036999
118	0x3e796d9d	0.2435822
119	0x3d7d5d6c	0.061856672
120	0x3d3ccdfb	0.046094876
121	0x3c8f11cd	0.017464543
122	0xbe4c8e6c	-0.19976205
123	0x3d9d8173	0.07690706
124	0x3c2b8213	0.010468024
125	0x3eb789fb	0.35847458
126	0xbd950d8a	-0.07277973
127	0x3e84311a	0.25818712
128	0xbd523fd8	-0.051330417
129	0x3deed37e	0.11661433
130	0xbfa41f98	-1.2822142
131	0x3d9f5ebc	0.07781741
132	0xbfc07c90	-1.5038013
133	0xbddaad8c	-0.10677633
134	0x3c9eb720	0.01937443
135	0xbe98d7ba	-0.29852086
136	0x3e8cfea2	0.2753802
137	0x3e2f3c3f	0.17112826
138	0xbc183dc0	-0.009292066
139	0x3d7dadac	0.061933205
140	0x3a3f86d9	0.00073061656
141	0x3eaa00b4	0.3320366
142	0x3d193b63	0.03741015
143	0x3e21efb6	0.15814099
144	0xbf86db4a	-1.0535672
145	0xbd7397cf	-0.059470948
146	0xbdd5dfc8	-0.104430735
147	0xbe922592	-0.2854429
148	0xbfc92915	-1.5715662
149	0xbd47d960	-0.04879129
150	0xba804fb4	-0.0009789378
151	0xbd64860a	-0.055791892
152	0xbf8b70ce	-1.08938
153	0x3ea72c3a	0.3265093
154	0xbda18e5a	-0.078884795
155	0x3be8a8b5	0.0071001896
156	0x3e79a880	0.24380684
157	0x3eab3bad	0.33443967
158	0xbdbb0a54	-0.09132829
159	0xbebf4209	-0.37355068
160	0xbe0792cf	-0.13239597
161	0x3cf91413	0.03040508
162	0xbd9ca138	-0.076479375
163	0x3e2e37a8	0.17013419
164	0x3ed692a3	0.4190875
165	0xbebe5bc7	-0.37179396
166	0x3ddea5e4	0.10871485
167	0x3ec6a758	0.38799548
168	0xbcab4182	-0.02090526
169	0xbcd3f2ec	-0.02587267
170	0x3dd97c44	0.10619405
171	0xbe7a15bd	-0.24422355
172	0x3dcb0bca	0.09914358
173	0x3e13a530	0.14418483
174	0xbdb74246	-0.089481875
175	0xbf9c6b51	-1.222025
176	0x3e74cce3	0.23906283
177	0xbf019358	-0.50615454
178	0xbdc0f210	-0.0942117
179	0xbcae230b	-0.021256944
180	0xbe34bc25	-0.17649896
181	0x3dca85d3	0.09888806
182	0xbfdd79b1	-1.7302762
183	0x3cbc7744	0.023006089
184	0xbb9ab9ed	-0.004721871
185	0x3e01d52b	0.12678973
186	0x3e3bb28d	0.1832983
187	0x3d020def	0.03175157
188	0xbde81d31	-0.11333693
189	0x3deda657	0.116039924
190	0x3d92dca0	0.07170987
191	0xbded6229	-0.11590988
192	0x3eba9443	0.3644124
193	0xbdc4803e	-0.09594773
194	0x3e8b2af6	0.27181214
195	0xbebdee28	-0.3709576
196	0xbd37d084	-0.04487659
197	0x3db9f67a	0.09080215
198	0x3ce4cc1b	0.027929356
199	0xbe076729	-0.13222946
200	0x3e599250	0.2124722
201	0x3e252096	0.16125712
202	0xbdedde22	-0.11614634
203	0x3ce54b8b	0.027990123
204	0xbd9ff2dd	-0.07809994
205	0xbeb81842	-0.35956007
206	0xbbdc6988	-0.0067264475
207	0x3e3454da	0.17610493
208	0x3eba22c7	0.36354658
209	0xbdb073bf	-0.08615827
210	0x3d5e6ad8	0.054301113
211	0x3ed09db1	0.4074531
212	0x3e0d3c89	0.13792624
213	0xbda6ef9d	-0.08151171
214	0x3d48bffc	0.049011216
215	0x3ec42061	0.38305953
216	0xbec8ba09	-0.39204434
217	0x3e305db2	0.17223242
218	0xbc6e56d0	-0.014547065
219	0xbe440420	-0.19142199
220	0x3e9c65c6	0.30546397
221	0xbdb20883	-0.0869303
222	0xbb821a43	-0.003970416
223	0x3e2dfad3	0.16990213
224	0x3dfe38f5	0.124132074
225	0x3e8a386e	0.26996177
226	0x3d84a2ee	0.06476389
227	0x3e018b7d	0.12650867
228	0x3e113798	0.14181364
229	0xbedbaa5c	-0.4290341
230	0xbd924c7f	-0.07143497
231	0xbf195a94	-0.59903836
232	0xbc26143e	-0.010136662
233	0x3de6b653	0.11265244
234	0x3dd3bbb2	0.103385344
235	0x3d0f268f	0.03494888
236	0xbdc41890	-0.095749974
237	0xbf2b6779	-0.6695476
238	0xbd81dd68	-0.06341058
239	0xbeb117ee	-0.3458857
240	0xbdb6b98c	-0.08922109
241	0x3e232415	0.15931733
242	0xbc81830d	-0.01580956
243	0x3d883091	0.06649888
244	0xbdfb3b72	-0.12267198
245	0xbde2d29b	-0.11075326
246	0xbee0a172	-0.43873173
247	0x3cb062bc	0.021531455
248	0x3de396ad	0.111127235
249	0xbeaac393	-0.33352336
250	0xbe20aff4	-0.15692121
251	0xbe057b20	-0.1303525
252	0xbd0cb976	-0.034356557
253	0xbe222168	-0.15833056
254	0x3a6db722	0.00090681214
255	0x3e8f92c7	0.2804167

4.bias f4 [27]
0	0xbe5665a7	-0.20937215
1	0xbdf07d79	-0.11742682
2	0xbd9796d0	-0.07401812
3	0x3e385bd5	0.18003781
4	0xbdd612d8	-0.10452813
5	0x3e92e1c3	0.28687868
6	0xbec32a65	-0.38118282
7	0x3c866fe3	0.016410774
8	0x3db20ce2	0.086938635
9	0x3d3409b7	0.043954577
10	0xbe183472	-0.14863756
11	0x3d23c66a	0.039984144
12	0x3e51d03c	0.20489591
13	0xbdb640d1	-0.088990815
14	0xbd77f0ec	-0.060532495
15	0x3cb4443f	0.022005199
16	0xbd978303	-0.073980354
17	0xbe044c1b	-0.12919657
18	0xbea3bf68	-0.3198197
19	0x3ad8236a	0.0016490046
20	0x3ec198b3	0.37811813
21	0x3e5e7748	0.2172519
22	0x3d963c37	0.07335704
23	0xbd1e8ca6	-0.03870835
24	0x3cdbc2ef	0.02682635
25	0x3d89acf0	0.06722438
26	0xbdb56f37	-0.08859103

exp_avg f4 [128, 63]
0	0xb8a4ffe7	-7.867795e-05
1	0xb9208c98	-0.00015311164
2	0xb9126767	-0.00013962165
3	0xb8350c9f	-4.3165517e-05
4	0xb90f90bb	-0.00013691459
5	0xb89d9371	-7.5138065e-05
6	0xb81a09f0	-3.6725716e-05
7	0xb91102ce	-0.00013829322
8	0xb6722734	-3.608363e-06
9	0xb8076900	-3.2284297e-05
10	0xb9127134	-0.00013965816
11	0x38532a89	5.0345934e-05
12	0x38674576	5.5139382e-05
13	0xb8f1f918	-0.00011538173
14	0x38b1fdd8	8.4873e-05
15	0x3806f97e	3.2180447e-05
16	0x388295ab	6.226761e-05
17	0x377b1ab0	1.49669795e-05
18	0x38839d00	6.27581e-05
19	0x38ecdee3	0.00011294873
20	0xb80bf4f5	-3.3368317e-05
21	0x38a6a2ee	7.945845e-05
22	0x39655f40	0.00021874625
23	0xb895fdfb	-7.152181e-05
24	0x390816f5	0.00012978523
25	0x39a954fa	0.00032297504
26	0xb811fba4	-3.4805053e-05
27	0x374fe090	1.23904465e-05
28	0x37aa4eb7	2.0302234e-05
29	0xb6c9f064	-6.018252e-06
30	0xb7882e7b	-1.6234108e-05
31	0x38822f01	6.207638e-05
32	0xb822f2ea	-3.885004e-05
33	0xb8250140	-3.934023e-05
34	0x39215d53	0.00015388922
35	0xb814fee1	-3.5523324e-05
36	0xb870d245	-5.7416288e-05
37	0x3958b36b	0.00020666204
38	0x387cf3dc	6.0308594e-05
39	0xb8035e77	-3.132081e-05
40	0xb7d45f96	-2.531688e-05
41	0xb71ff10a	-9.53326e-06
42	0x37068efe	8.020315e-06
43	0x378f9531	1.7116401e-05
44	0x377bd1e7	1.50096375e-05
45	0xb80c97b1	-3.3519875e-05
46	0xb81a7f2b	-3.6834896e-05
47	0x38327442	4.254678e-05
48	0xb9030bc4	-0.00012497517
49	0xb8d5edb3	-0.000102009064
50	0x385bdd37	5.241969e-05
51	0xb7ac9c4d	-2.0576781e-05
52	0xb8bf4a7b	-9.121463e-05
53	0xb7a2478b	-1.934522e-05
54	0x37465b97	1.1823045e-05
55	0xb8abc3c6	-8.190381e-05
56	0x374ab6e7	1.20827235e-05
57	0x36c221f7	5.7856046e-06
58	0xb8e0b859	-0.0001071549
59	0x34b3da3c	3.3500135e-07
60	0xb8a56961	-7.8874415e-05
61	0xb945fa5b	-0.00018880649
62	0xb858d588	-5.169728e-05
63	0x00000000	0.0
64	0x00000000	0.0
65	0x00000000	0.0
66	0x00000000	0.0
67	0x00000000	0.0
68	0x00000000	0.0
69	0x00000000	0.0
70	0x00000000	0.0
71	0x00000000	0.0
72	0x00000000	0.0
73	0x00000000	0.0
74	0x00000000	0.0
75	0x00000000	0.0
76	0x00000000	0.0
77	0x00000000	0.0
78	0x00000000	0.0
79	0x00000000	0.0
80	0x00000000	0.0
81	0x00000000	0.0
82	0x00000000	0.0
83	0x00000000	0.0
84	0x00000000	0.0
85	0x00000000	0.0
86	0x00000000	0.0
87	0x00000000	0.0
88	0x00000000	0.0
89	0x00000000	0.0
90	0x00000000	0.0
91	0x00000000	0.0
92	0x00000000	0.0
93	0x00000000	0.0
94	0x00000000	0.0
95	0x00000000	0.0
96	0x00000000	0.0
97	0x00000000	0.0
98	0x00000000	0.0
99	0x00000000	0.0
100	0x00000000	0.0
101	0x00000000	0.0
102	0x00000000	0.0
103	0x00000000	0.0
104	0x00000000	0.0
105	0x00000000	0.0
106	0x00000000	0.0
107	0x00000000	0.0
108	0x00000000	0.0
109	0x00000000	0.0
110	0x00000000	0.0
111	0x00000000	0.0
112	0x00000000	0.0
113	0x00000000	0.0
114	0x00000000	0.0
115	0x00000000	0.0
116	0x00000000	0.0
117	0x00000000	0.0
118	0x00000000	0.0
119	0x00000000	0.0
120	0x00000000	0.0
121	0x00000000	0.0
122	0x00000000	0.0
123	0x00000000	0.0
124	0x00000000	0.0
125	0x00000000	0.0
126	0x00000000	0.0
127	0x00000000	0.0
128	0x00000000	0.0
129	0x00000000	0.0
130	0x00000000	0.0
131	0x00000000	0.0
132	0x00000000	0.0
133	0x00000000	0.0
134	0x00000000	0.0
135	0x00000000	0.0
136	0x00000000	0.0
137	0x00000000	0.0
138	0x00000000	0.0
139	0x00000000	0.0
140	0x00000000	0.0
141	0x00000000	0.0
142	0x00000000	0.0
143	0x00000000	0.0
144	0x00000000	0.0
145	0x00000000	0.0
146	0x00000000	0.0
147	0x00000000	0.0
148	0x00000000	0.0
149	0x00000000	0.0
150	0x00000000	0.0
151	0x00000000	0.0
152	0x00000000	0.0
153	0x00000000	0.0
154	0x00000000	0.0
155	0x00000000	0.0
156	0x00000000	0.0
157	0x00000000	0.0
158	0x00000000	0.0
159	0x00000000	0.0
160	0x00000000	0.0
161	0x00000000	0.0
162	0x00000000	0.0
163	0x00000000	0.0
164	0x00000000	0.0
165	0x00000000	0.0
166	0x00000000	0.0
167	0x00000000	0.0
168	0x00000000	0.0
169	0x00000000	0.0
170	0x00000000	0.0
171	0x00000000	0.0
172	0x00000000	0.0
173	0x00000000	0.0
174	0x00000000	0.0
175	0x00000000	0.0
176	0x00000000	0.0
177	0x00000000	0.0
178	0x00000000	0.0
179	0x00000000	0.0
180	0x00000000	0.0
181	0x00000000	0.0
182	0x00000000	0.0
183	0x00000000	0.0
184	0x00000000	0.0
185	0x00000000	0.0
186	0x00000000	0.0
187	0x00000000	0.0
188	0x00000000	0.0
189	0x00000000	0.0
190	0x00000000	0.0
191	0x00000000	0.0
192	0x00000000	0.0
193	0x00000000	0.0
194	0x00000000	0.0
195	0x00000000	0.0
196	0x00000000	0.0
197	0x00000000	0.0
198	0x00000000	0.0
199	0x00000000	0.0
200	0x00000000	0.0
201	0x00000000	0.0
202	0x00000000	0.0
203	0x00000000	0.0
204	0x00000000	0.0
205	0x00000000	0.0
206	0x00000000	0.0
207	0x00000000	0.0
208	0x00000000	0.0
209	0x00000000	0.0
210	0x00000000	0.0
211	0x00000000	0.0
212	0x00000000	0.0
213	0x00000000	0.0
214	0x00000000	0.0
215	0x00000000	0.0
216	0x00000000	0.0
217	0x00000000	0.0
218	0x00000000	0.0
219	0x00000000	0.0
220	0x00000000	0.0
221	0x00000000	0.0
222	0x00000000	0.0
223	0x00000000	0.0
224	0x00000000	0.0
225	0x00000000	0.0
226	0x00000000	0.0
227	0x00000000	0.0
228	0x00000000	0.0
229	0x00000000	0.0
230	0x00000000	0.0
231	0x00000000	0.0
232	0x00000000	0.0
233	0x00000000	0.0
234	0x00000000	0.0
235	0x00000000	0.0
236	0x00000000	0.0
237	0x00000000	0.0
238	0x00000000	0.0
239	0x00000000	0.0
240	0x00000000	0.0
241	0x00000000	0.0
242	0x00000000	0.0
243	0x00000000	0.0
244	0x00000000	0.0
245	0x00000000	0.0
246	0x00000000	0.0
247	0x00000000	0.0
248	0x00000000	0.0
249	0x00000000	0.0
250	0x00000000	0.0
251	0x00000000	0.0
252	0xb80f0aaf	-3.4103807e-05
253	0xb90739ff	-0.00012896209
254	0xb965c516	-0.00021912562
255	0xb7c0c7aa	-2.298116e-05

exp_avg_sq f4 [128, 63]
0	0x35d104d7	1.5573122e-06
1	0x36ef9e31	7.141171e-06
2	0x364763dd	2.9711439e-06
3	0x35a42684	1.2230162e-06
4	0x368ca359	4.1913413e-06
5	0x35c2dbb8	1.4518073e-06
6	0x358fdc70	1.0718486e-06
7	0x35ed7c73	1.7694096e-06
8	0x358bb205	1.0408118e-06
9	0x3558ad94	8.071886e-07
10	0x3551963f	7.8077204e-07
11	0x358ef39a	1.0650722e-06
12	0x3563f673	8.492272e-07
13	0x3550d48d	7.779534e-07
14	0x35af1fd4	1.3047779e-06
15	0x34c9d4a1	3.7593875e-07
16	0x3405c2c6	1.2457448e-07
17	0x3331a35f	4.135961e-08
18	0x35230d8f	6.074196e-07
19	0x3587d448	1.0120066e-06
20	0x34c784d7	3.7163292e-07
21	0x35904d75	1.0751379e-06
22	0x3615c551	2.2317583e-06
23	0x3551e823	7.819637e-07
24	0x35f4ccaf	1.8238987e-06
25	0x366e67d1	3.5525193e-06
26	0x361312df	2.1915691e-06
27	0x31f29204	7.059727e-09
28	0x32a7f55e	1.9552939e-08
29	0x332d6a5f	4.0376445e-08
30	0x34862601	2.4987096e-07
31	0x35b7a9e8	1.3684012e-06
32	0x34c73c92	3.711071e-07
33	0x3563a37f	8.480201e-07
34	0x3646dc12	2.9632397e-06
35	0x35a98550	1.263028e-06
36	0x36020b1a	1.9377972e-06
37	0x36bf6692	5.7041843e-06
38	0x35f24940	1.8051724e-06
39	0x3430b971	1.645874e-07
40	0x336b1111	5.4730723e-08
41	0x32876a9f	1.5764554e-08
42	0x34eecb99	4.447909e-07
43	0x34de5e8e	4.141952e-07
44	0x35220550	6.0357434e-07
45	0x35551cd2	7.939062e-07
46	0x3540af23	7.178043e-07
47	0x35a14aa3	1.2017157e-06
48	0x35d0f04d	1.5567144e-06
49	0x35ed9bd7	1.7703231e-06
50	0x35a8d5f7	1.2579247e-06
51	0x355a4f4b	8.1326715e-07
52	0x34f73033	4.6042405e-07
53	0x33d9cad9	1.0141748e-07
54	0x3579ca9e	9.3054575e-07
55	0x34c5a477	3.6813773e-07
56	0x34b9d34a	3.4612668e-07
57	0x357c64ff	9.4024284e-07
58	0x35453ce6	7.347684e-07
59	0x35586ff3	8.062918e-07
60	0x35af0fcb	1.3043112e-06
61	0x35a750c3	1.2465974e-06
62	0x354972b2	7.504524e-07
63	0x00000000	0.0
64	0x00000000	0.0
65	0x00000000	0.0
66	0x00000000	0.0
67	0x00000000	0.0
68	0x00000000	0.0
69	0x00000000	0.0
70	0x00000000	0.0
71	0x00000000	0.0
72	0x00000000	0.0
73	0x00000000	0.0
74	0x00000000	0.0
75	0x00000000	0.0
76	0x00000000	0.0
77	0x00000000	0.0
78	0x00000000	0.0
79	0x00000000	0.0
80	0x00000000	0.0
81	0x00000000	0.0
82	0x00000000	0.0
83	0x00000000	0.0
84	0x00000000	0.0
85	0x00000000	0.0
86	0x00000000	0.0
87	0x00000000	0.0
88	0x00000000	0.0
89	0x00000000	0.0
90	0x00000000	0.0
91	0x00000000	0.0
92	0x00000000	0.0
93	0x00000000	0.0
94	0x00000000	0.0
95	0x00000000	0.0
96	0x00000000	0.0
97	0x00000000	0.0
98	0x00000000	0.0
99	0x00000000	0.0
100	0x00000000	0.0
101	0x00000000	0.0
102	0x00000000	0.0
103	0x00000000	0.0
104	0x00000000	0.0
105	0x00000000	0.0
106	0x00000000	0.0
107	0x00000000	0.0
108	0x00000000	0.0
109	0x00000000	0.0
110	0x00000000	0.0
111	0x00000000	0.0
112	0x00000000	0.0
113	0x00000000	0.0
114	0x00000000	0.0
115	0x00000000	0.0
116	0x00000000	0.0
117	0x00000000	0.0
118	0x00000000	0.0
119	0x00000000	0.0
120	0x00000000	0.0
121	0x00000000	0.0
122	0x00000000	0.0
123	0x00000000	0.0
124	0x00000000	0.0
125	0x00000000	0.0
126	0x00000000	0.0
127	0x00000000	0.0
128	0x00000000	0.0
129	0x00000000	0.0
130	0x00000000	0.0
131	0x00000000	0.0
132	0x00000000	0.0
133	0x00000000	0.0
134	0x00000000	0.0
135	0x00000000	0.0
136	0x00000000	0.0
137	0x00000000	0.0
138	0x00000000	0.0
139	0x00000000	0.0
140	0x00000000	0.0
141	0x00000000	0.0
142	0x00000000	0.0
143	0x00000000	0.0
144	0x00000000	0.0
145	0x00000000	0.0
146	0x00000000	0.0
147	0x00000000	0.0
148	0x00000000	0.0
149	0x00000000	0.0
150	0x00000000	0.0
151	0x00000000	0.0
152	0x00000000	0.0
153	0x00000000	0.0
154	0x00000000	0.0
155	0x00000000	0.0
156	0x00000000	0.0
157	0x00000000	0.0
158	0x00000000	0.0
159	0x00000000	0.0
160	0x00000000	0.0
161	0x00000000	0.0
162	0x00000000	0.0
163	0x00000000	0.0
164	0x00000000	0.0
165	0x00000000	0.0
166	0x00000000	0.0
167	0x00000000	0.0
168	0x00000000	0.0
169	0x00000000	0.0
170	0x00000000	0.0
171	0x00000000	0.0
172	0x00000000	0.0
173	0x00000000	0.0
174	0x00000000	0.0
175	0x00000000	0.0
176	0x00000000	0.0
177	0x00000000	0.0
178	0x00000000	0.0
179	0x00000000	0.0
180	0x00000000	0.0
181	0x00000000	0.0
182	0x00000000	0.0
183	0x00000000	0.0
184	0x00000000	0.0
185	0x00000000	0.0
186	0x00000000	0.0
187	0x00000000	0.0
188	0x00000000	0.0
189	0x00000000	0.0
190	0x00000000	0.0
191	0x00000000	0.0
192	0x00000000	0.0
193	0x00000000	0.0
194	0x00000000	0.0
195	0x00000000	0.0
196	0x00000000	0.0
197	0x00000000	0.0
198	0x00000000	0.0
199	0x00000000	0.0
200	0x00000000	0.0
201	0x00000000	0.0
202	0x00000000	0.0
203	0x00000000	0.0
204	0x00000000	0.0
205	0x00000000	0.0
206	0x00000000	0.0
207	0x00000000	0.0
208	0x00000000	0.0
209	0x00000000	0.0
210	0x00000000	0.0
211	0x00000000	0.0
212	0x00000000	0.0
213	0x00000000	0.0
214	0x00000000	0.0
215	0x00000000	0.0
216	0x00000000	0.0
217	0x00000000	0.0
218	0x00000000	0.0
219	0x00000000	0.0
220	0x00000000	0.0
221	0x00000000	0.0
222	0x00000000	0.0
223	0x00000000	0.0
224	0x00000000	0.0
225	0x00000000	0.0
226	0x00000000	0.0
227	0x00000000	0.0
228	0x00000000	0.0
229	0x00000000	0.0
230	0x00000000	0.0
231	0x00000000	0.0
232	0x00000000	0.0
233	0x00000000	0.0
234	0x00000000	0.0
235	0x00000000	0.0
236	0x00000000	0.0
237	0x00000000	0.0
238	0x00000000	0.0
239	0x00000000	0.0
240	0x00000000	0.0
241	0x00000000	0.0
242	0x00000000	0.0
243	0x00000000	0.0
244	0x00000000	0.0
245	0x00000000	0.0
246	0x00000000	0.0
247	0x00000000	0.0
248	0x00000000	0.0
249	0x00000000	0.0
250	0x00000000	0.0
251	0x00000000	0.0
252	0x350ae294	5.173872e-07
253	0x369e3720	4.7151843e-06
254	0x35e6a320	1.7183811e-06
255	0x351b4a90	5.78505e-07

exp_avg f4 [128]
0	0xbac6962b	-0.0015150955
1	0x00000000	0.0
2	0x00000000	0.0
3	0x00000000	0.0
4	0xbaa4352f	-0.0012528057
5	0x3c765b89	0.015036472
6	0x3cb08290	0.021546632
7	0x00000000	0.0
8	0x3aea823a	0.0017891594
9	0xb926b31e	-0.0001589772
10	0x3c56ffd9	0.013122522
11	0x00000000	0.0
12	0x3c15eb60	0.009150356
13	0x00000004	6e-45
14	0x00000000	0.0
15	0x00000000	0.0
16	0x3ab29060	0.0013623349
17	0xb992a52f	-0.0002797036
18	0xbb822890	-0.0039721206
19	0x00000000	0.0
20	0x3c53306a	0.012889961
21	0xbaf27c8d	-0.0018500254
22	0xbbd498f9	-0.0064879623
23	0x00000004	6e-45
24	0xbb0cd942	-0.00214918
25	0x3b2344c6	0.0024912818
26	0x00000000	0.0
27	0x00000000	0.0
28	0x00000000	0.0
29	0x00000000	0.0
30	0x00000000	0.0
31	0x00000004	6e-45
32	0xbabbfdd7	-0.0014342618
33	0xbc207e11	-0.009795682
34	0xbaa0b59d	-0.0012261156
35	0x00000000	0.0
36	0xbb8d5685	-0.0043132924
37	0x3c38b854	0.011274416
38	0x00000000	0.0
39	0x3ba71f30	0.0051001534
40	0x3b37ab8c	0.0028025834
41	0x3c4528c5	0.012033646
42	0x3bc4ddc0	0.00600788
43	0x00000000	0.0
44	0xbc6e189f	-0.014532237
45	0x00000000	0.0
46	0x3c26e4dd	0.010186401
47	0x00000000	0.0
48	0x38b8a4ef	8.804525e-05
49	0xbbd6767d	-0.0065448866
50	0x00000000	0.0
51	0x3b21ec0c	0.0024707345
52	0x3c00b2a8	0.007855095
53	0xbb02f40c	-0.001998189
54	0x00000000	0.0
55	0x00000000	0.0
56	0x3b1a7fd6	0.0023574731
57	0x3bb1fc02	0.005431653
58	0x3c347aef	0.011015638
59	0x3b58c515	0.0033076454
60	0xbbf525ee	-0.007481328
61	0x00000000	0.0
62	0x00000000	0.0
63	0xbb019aaa	-0.0019776025
64	0x00000000	0.0
65	0x3b3fad12	0.0029247445
66	0x3c12c9ba	0.008959228
67	0x3b90bd5d	0.004417105
68	0xbc15fa2c	-0.009153884
69	0x00000000	0.0
70	0xbc969646	-0.018382203
71	0x00000000	0.0
72	0xbc667082	-0.01406491
73	0x3b900b98	0.0043959133
74	0x00000000	0.0
75	0x00000000	0.0
76	0x3bf57563	0.0074908
77	0x00000000	0.0
78	0xb9b72ac1	-0.00034936334
79	0x00000000	0.0
80	0x00000000	0.0
81	0x00000004	6e-45
82	0x00000000	0.0
83	0x00000000	0.0
84	0xb81fe420	-3.8121012e-05
85	0x00000000	0.0
86	0xbc17c594	-0.009263415
87	0x00000004	6e-45
88	0x00000000	0.0
89	0xbb64cf8b	-0.0034913744
90	0x3c574849	0.013139793
91	0x3ae29385	0.0017286396
92	0xbcb481b7	-0.02203451
93	0x3b0762dd	0.0020658292
94	0x3b971910	0.004611142
95	0x3c2e5506	0.010640388
96	0x3c0ad79a	0.008474255
97	0xbaeae27d	-0.0017920282
98	0x3bc0c8d8	0.0058833174
99	0xba707122	-0.00091721315
100	0x3a16d0d4	0.0005753164
101	0x00000000	0.0
102	0xbb8f457d	-0.0043722973
103	0x3b10c0af	0.0022087505
104	0x00000000	0.0
105	0x00000000	0.0
106	0x3b3a7071	0.0028448368
107	0x3bde39f0	0.006781809
108	0x00000000	0.0
109	0xbc09ac39	-0.0084028775
110	0x00000000	0.0
111	0x3b15bd10	0.0022848286
112	0xbba8f818	-0.005156528
113	0xba92aba3	-0.0011190068
114	0xbb5e1ebb	-0.0033892829
115	0x3a9e25ad	0.0012065672
116	0x00000000	0.0
117	0x00000000	0.0
118	0x00000004	6e-45
119	0x00000000	0.0
120	0x3c66cd49	0.01408703
121	0xbc397b08	-0.011320837
122	0x00000000	0.0
123	0xba2feb2a	-0.00067107624
124	0xbc2645d6	-0.010148486
125	0x00000004	6e-45
126	0x3bcec2e0	0.006309852
127	0x00000000	0.0

exp_avg_sq f4 [128]
0	0x3aeb3737	0.0017945532
1	0x00000000	0.0
2	0x00000000	0.0
3	0x00000000	0.0
4	0x3a7f591b	0.0009740756
5	0x3b131ecb	0.0022448774
6	0x3b2cf7d0	0.0026392825
7	0x00000000	0.0
8	0x3a1c1580	0.00059541315
9	0x3bab55e7	0.005228746
10	0x3b430a43	0.0029760755
11	0x00000000	0.0
12	0x3b81c5d8	0.0039603524
13	0x2b88a483	9.709042e-13
14	0x00000000	0.0
15	0x00000000	0.0
16	0x3aca5c23	0.0015438836
17	0x3b7a57f3	0.0038199394
18	0x3bac87e6	0.005265224
19	0x00000000	0.0
20	0x3a96fd77	0.001151963
21	0x3a891d87	0.001046107
22	0x3bb46ce8	0.0055061467
23	0x25e4b86a	3.967666e-16
24	0x3c121b2f	0.008917614
25	0x3af62406	0.0018779046
26	0x00000000	0.0
27	0x00000000	0.0
28	0x00000000	0.0
29	0x00000000	0.0
30	0x00000000	0.0
31	0x2cb0b459	5.0222435e-12
32	0x3bdd7799	0.006758642
33	0x3aab39c1	0.0013063477
34	0x3b0921b5	0.0020924632
35	0x00000000	0.0
36	0x3a11975c	0.00055538653
37	0x3ab9f29e	0.0014186685
38	0x00000000	0.0
39	0x3a73da5a	0.0009302251
40	0x3aedc135	0.0018139245
41	0x3a9e76d3	0.0012089856
42	0x3b57384b	0.003283995
43	0x00000000	0.0
44	0x3b39ce14	0.0028351592
45	0x00000000	0.0
46	0x3ad7666b	0.0016433721
47	0x00000000	0.0
48	0x3b80cc57	0.003930609
49	0x3aecaaea	0.0018056307
50	0x00000000	0.0
51	0x39f0a155	0.0004589657
52	0x3b3e142e	0.0029003727
53	0x3a90d8f6	0.0011050988
54	0x00000000	0.0
55	0x00000000	0.0
56	0x3a44ceba	0.00075076113
57	0x3b253703	0.0025209791
58	0x3b8a6a3e	0.004224091
59	0x3b83cc78	0.0040221773
60	0x3b169370	0.0022976063
61	0x00000000	0.0
62	0x00000000	0.0
63	0x3abd3844	0.0014436324
64	0x00000000	0.0
65	0x3a28e0fa	0.00064422155
66	0x3b0065d9	0.0019591956
67	0x3b2c9f71	0.0026340152
68	0x3abd84e2	0.0014459158
69	0x00000000	0.0
70	0x3c0d23b4	0.008614469
71	0x00000000	0.0
72	0x3ba4e834	0.0050325636
73	0x3c2655d0	0.010152295
74	0x00000000	0.0
75	0x00000000	0.0
76	0x3b6e710d	0.0036383301
77	0x00000000	0.0
78	0x3a6122ad	0.0008588236
79	0x00000000	0.0
80	0x00000000	0.0
81	0x2b53e83c	7.528455e-13
82	0x00000000	0.0
83	0x00000000	0.0
84	0x3a9f56dd	0.0012156625
85	0x00000000	0.0
86	0x3bdba689	0.006703202
87	0x2cafc507	4.9956736e-12
88	0x00000000	0.0
89	0x3b1e5a0c	0.002416256
90	0x3b296e4f	0.0025853103
91	0x3b868bca	0.0041060196
92	0x3c548f3b	0.012973602
93	0x3ad014d6	0.001587535
94	0x3a873737	0.0010316138
95	0x3c0a73e2	0.00845048
96	0x3b925104	0.004465224
97	0x3b03374a	0.0020021969
98	0x3b1b94ab	0.0023739736
99	0x3aaa5bd9	0.0012997343
100	0x3bafffbe	0.005371063
101	0x00000000	0.0
102	0x3a702b2a	0.00091617054
103	0x3b029d77	0.0019930282
104	0x00000000	0.0
105	0x00000000	0.0
106	0x3af4c1ae	0.0018673444
107	0x3aec6dc8	0.0018038088
108	0x00000000	0.0
109	0x3b86a060	0.0041084737
110	0x00000000	0.0
111	0x3b902ffa	0.0044002505
112	0x3b0ed1a2	0.0021792431
113	0x3a89c6ed	0.0010511555
114	0x3a37cb3e	0.00070111814
115	0x3ac28c48	0.0014842832
116	0x00000000	0.0
117	0x00000000	0.0
118	0x2ea71756	7.598426e-11
119	0x00000000	0.0
120	0x3b2dbadd	0.0026509084
121	0x3ae2a1f0	0.0017290693
122	0x00000000	0.0
123	0x3b740962	0.0037237038
124	0x3bd85dc4	0.0066029746
125	0x2efb9caf	1.1441991e-10
126	0x3a943cf7	0.0011309673
127	0x00000000	0.0

exp_avg f4 [64, 128]
0	0xb934c342	-0.00017238877
1	0x00000000	0.0
2	0x00000000	0.0
3	0x00000000	0.0
4	0x39909994	0.00027580245
5	0xb99657ae	-0.00028675556
6	0x3a0b0616	0.0005303336
7	0x00000000	0.0
8	0x3a0fd192	0.00054862455
9	0x3a0e567e	0.00054297585
10	0x3a1feac4	0.00061003515
11	0x00000000	0.0
12	0x393cb7db	0.00017997569
13	0x80000004	-6e-45
14	0x00000000	0.0
15	0x00000000	0.0
16	0x388e6ce4	6.79137e-05
17	0x3a283416	0.0006416453
18	0x37eedf09	2.847567e-05
19	0x00000000	0.0
20	0x3a0d21fc	0.0005383787
21	0xb8ba38e0	-8.879765e-05
22	0x399c3aa1	0.0002979832
23	0x80000004	-6e-45
24	0x38e14d0f	0.00010743189
25	0x3a01671c	0.0004936324
26	0x00000000	0.0
27	0x00000000	0.0
28	0x00000000	0.0
29	0x00000000	0.0
30	0x00000000	0.0
31	0x80000004	-6e-45
32	0x391e387b	0.00015089095
33	0x373fd1df	1.1433352e-05
34	0x37c74b65	2.3757757e-05
35	0x00000000	0.0
36	0x39dbbccc	0.000419116
37	0x39cbe80b	0.00038892063
38	0x00000000	0.0
39	0x392af6ac	0.00016304356
40	0x37ab6c7f	2.0435311e-05
41	0xb945b289	-0.00018853894
42	0x39a172e1	0.00030793904
43	0x00000000	0.0
44	0x39c919f9	0.0003835706
45	0x00000000	0.0
46	0xb9c5854e	-0.00037674088
47	0x00000000	0.0
48	0xb89c7f2c	-7.462347e-05
49	0x399de595	0.00030116425
50	0x00000000	0.0
51	0x39a7773e	0.00031941565
52	0x39c384a8	0.00037292135
53	0x39b9d999	0.00035448073
54	0x00000000	0.0
55	0x00000000	0.0
56	0x399269b0	0.00027926033
57	0x3a0d32a1	0.00053862674
58	0x3947448b	0.00019003653
59	0x395d8f88	0.00021129672
60	0x393b3267	0.00017852486
61	0x00000000	0.0
62	0x00000000	0.0
63	0x3970bb72	0.00022958012
64	0x00000000	0.0
65	0xb89b0b63	-7.393097e-05
66	0x38d3bf91	0.00010096946
67	0x39840481	0.00025180358
68	0xb9d2b565	-0.0004018947
69	0x00000000	0.0
70	0x39daea1a	0.0004175462
71	0x00000000	0.0
72	0x3a483b7b	0.0007638258
73	0x3586184e	9.990852e-07
74	0x00000000	0.0
75	0x00000000	0.0
76	0xb96880b9	-0.00022173197
77	0x00000000	0.0
78	0x3929eb0a	0.00016204655
79	0x00000000	0.0
80	0x00000000	0.0
81	0x80000004	-6e-45
82	0x00000000	0.0
83	0x00000000	0.0
84	0x39d45525	0.0004049923
85	0x00000000	0.0
86	0x3a19cf27	0.0005867355
87	0x80000004	-6e-45
88	0x00000000	0.0
89	0x3959344b	0.00020714213
90	0x3a332490	0.00068337563
91	0x39cf3702	0.000395231
92	0x39361e10	0.00017368072
93	0x39b221ca	0.0003397598
94	0x390bac91	0.00013320359
95	0x3a47c95c	0.00076212524
96	0xb90f35d7	-0.000136576
97	0x39cb1506	0.0003873484
98	0x38563e02	5.1079325e-05
99	0xb935ae0d	-0.00017326344
100	0x3942c56c	0.00018574827
101	0x00000000	0.0
102	0xb837df2f	-4.3838456e-05
103	0x39ad9742	0.00033109827
104	0x00000000	0.0
105	0x00000000	0.0
106	0x39ad8ec7	0.0003310351
107	0x38ad32e3	8.258761e-05
108	0x00000000	0.0
109	0x38ad97fb	8.2775914e-05
110	0x00000000	0.0
111	0x39c167aa	0.00036889064
112	0x39ba2922	0.0003550733
113	0x3a12bc9a	0.0005597562
114	0x3a2176cf	0.00061593665
115	0xb954ee79	-0.00020306733
116	0x00000000	0.0
117	0x00000000	0.0
118	0x80000004	-6e-45
119	0x00000000	0.0
120	0x3a212952	0.000614782
121	0x399b81ae	0.00029660523
122	0x00000000	0.0
123	0x38bfb492	9.1412236e-05
124	0x3a0c7c64	0.0005359112
125	0x00000004	6e-45
126	0x3947d78d	0.00019058418
127	0x00000000	0.0
128	0xba426f79	-0.00074171234
129	0x00000000	0.0
130	0x00000000	0.0
131	0x00000000	0.0
132	0xb9df934c	-0.0004264362
133	0xba26652d	-0.0006347474
134	0xba8d542f	-0.0010782535
135	0x00000000	0.0
136	0xba8de024	-0.0010824245
137	0xb8a5a0f3	-7.897792e-05
138	0xb9fb9038	-0.00047981902
139	0x00000000	0.0
140	0xba820c9e	-0.0009921973
141	0x00000000	0.0
142	0x00000000	0.0
143	0x00000000	0.0
144	0xba3c7875	-0.00071895804
145	0xb930f5e9	-0.00016876277
146	0xb9b207b8	-0.00033956557
147	0x00000000	0.0
148	0xba9a8b5e	-0.0011790802
149	0xb9ce84e3	-0.0003939039
150	0xb996d822	-0.0002877126
151	0x00000000	0.0
152	0xb919c5e4	-0.00014664937
153	0xba0cc179	-0.0005369406
154	0x00000000	0.0
155	0x00000000	0.0
156	0x00000000	0.0
157	0x00000000	0.0
158	0x00000000	0.0
159	0x00000000	0.0
160	0xb959afae	-0.00020760178
161	0xb9a0fa2c	-0.0003070397
162	0xba67f600	-0.00088486075
163	0x00000000	0.0
164	0xba4e1428	-0.000786128
165	0xbab4ea80	-0.0013802797
166	0x00000000	0.0
167	0xb9f37f79	-0.00046443546
168	0xb9f861b0	-0.0004737503
169	0xba946654	-0.0011322
170	0xba306767	-0.00067292753
171	0x00000000	0.0
172	0xba8ecff6	-0.0010895717
173	0x00000000	0.0
174	0xba716aba	-0.0009209324
175	0x00000000	0.0
176	0xb96efc3d	-0.00022791415
177	0xba35ac10	-0.00069302414
178	0x00000000	0.0
179	0xba8cf88d	-0.0010755226
180	0xb9df61f5	-0.00042606858
181	0xba963e4e	-0.001146266
182	0x00000000	0.0
183	0x00000000	0.0
184	0xba712cb7	-0.00092000834
185	0xba0249c2	-0.0004970097
186	0xba1a8b89	-0.0005895426
187	0xb9fcc86a	-0.00048214506
188	0xba303b9c	-0.00067227497
189	0x00000000	0.0
190	0x00000000	0.0
191	0xba5a8f78	-0.00083374185
192	0x00000000	0.0
193	0xb9cd1faf	-0.00039124253
194	0xba1372bf	-0.00056247035
195	0xb9a0f5d6	-0.0003070074
196	0x38f7135f	0.00011781486
197	0x00000000	0.0
198	0xb9d843d3	-0.00041249263
199	0x00000000	0.0
200	0xb9dc9157	-0.00042069957
201	0xb914cad8	-0.00014189945
202	0x00000000	0.0
203	0x00000000	0.0
204	0xba6a0339	-0.0008926872
205	0x00000000	0.0
206	0xba8edaa0	-0.0010898896
207	0x00000000	0.0
208	0x00000000	0.0
209	0x00000000	0.0
210	0x00000000	0.0
211	0x00000000	0.0
212	0xba8f2993	-0.0010922424
213	0x00000000	0.0
214	0xb98fbe7d	-0.0002741701
215	0x00000000	0.0
216	0x00000000	0.0
217	0xba540fc7	-0.0008089509
218	0xba8839b2	-0.0010393171
219	0xba0dcb4e	-0.0005409018
220	0x376fe7be	1.4299467e-05
221	0xba49c0a6	-0.00076962484
222	0xba5a05d7	-0.000831691
223	0xba8c0ab8	-0.0010684347
224	0xba20f583	-0.00061401
225	0xba4a9a97	-0.0007728724
226	0xba259278	-0.0006316076
227	0xba54228e	-0.0008092307
228	0xb914fb1d	-0.00014207927
229	0x00000000	0.0
230	0xb9b387a2	-0.00034242595
231	0xba6f6017	-0.0009131445
232	0x00000000	0.0
233	0x00000000	0.0
234	0xba8f0c5d	-0.0010913719
235	0xba74912e	-0.0009329495
236	0x00000000	0.0
237	0xb974eece	-0.00023358615
238	0x00000000	0.0
239	0xba29e01f	-0.0006480235
240	0xba06b288	-0.00051382976
241	0xba479cda	-0.000761462
242	0xba7444ad	-0.0009318095
243	0xb7cdaa1e	-2.4517121e-05
244	0x00000000	0.0
245	0x00000000	0.0
246	0x00000004	6e-45
247	0x00000000	0.0
248	0xba2f9209	-0.0006697481
249	0xb9ccb44d	-0.00039044247
250	0x00000000	0.0
251	0xb9a8146c	-0.00032058673
252	0xb983099a	-0.0002499342
253	0x00000000	0.0
254	0xb9cef03d	-0.00039470373
255	0x00000000	0.0
